models/intent-classifier/intent_classifier_int8.onnx (onnx, 725100 bytes, 34 tensors)

encoder.layers.0.self_attn.in_proj_bias f4 [192]
0.043112297 -0.06642319 -0.028608756 -0.08090961 -0.0717516 -0.014774711 0.082577474 0.053759664
-0.06260391 -0.03699618 0.072099976 -0.08547773 -0.023517799 0.05876824 -0.0142506305 -0.024278203
-0.024845956 0.06423993 -0.07351869 0.014728166 0.02957013 -0.057255242 -0.012213868 -0.07058096
0.10221724 -0.05393424 0.006344099 -0.0927397 -0.022935722 0.09689216 -0.08738794 -0.04611497
0.019179454 -0.024195826 0.05710884 -0.022485377 0.03961769 -0.03964878 -0.06605197 -0.040422108
0.023826217 0.04584461 -0.050957277 -0.00018852028 0.052517124 -0.041067354 0.06576509 0.084980965
0.05797939 0.0972696 -0.028930763 0.015395653 -0.08919974 0.09444599 -0.119567946 0.07334866
-0.01266109 -0.12712339 -0.036527254 0.062404014 -0.01689888 -0.046231378 -0.07566417 0.08594902
-1.081914e-06 5.682544e-06 4.3499955e-07 -8.382632e-06 -6.646899e-06 3.5010255e-06 1.113341e-05 2.7302024e-06
-5.329938e-06 -8.12069e-06 3.5231557e-07 -1.1964331e-05 4.9588914e-07 -1.9941156e-06 -1.0499632e-07 1.5815232e-06
7.171313e-07 -4.6468126e-06 2.4246547e-06 -1.3947538e-06 -2.219821e-06 3.4546194e-06 2.9937771e-06 5.126593e-06
-2.4682329e-06 3.0684332e-06 2.957654e-06 2.4042802e-05 7.548138e-06 -7.407304e-06 -1.9846993e-06 7.2559696e-06
-5.264219e-07 -4.1426622e-07 4.7357e-06 -1.3933416e-06 3.6250128e-06 2.898268e-06 -1.0039825e-05 4.9710625e-06
-2.6197106e-06 1.1593115e-05 -2.1628198e-06 1.3540962e-06 -4.2177453e-06 -2.4160543e-06 1.3230847e-05 -8.293619e-06
7.475804e-06 4.5243114e-06 -1.3492692e-06 -1.553633e-06 3.0582282e-07 -1.9483741e-05 3.3942733e-06 -6.179299e-06
1.9380339e-07 3.4271554e-05 3.9368542e-06 -1.02283275e-05 2.0656882e-06 4.963154e-06 1.4706349e-05 -4.029576e-06
0.0034839248 -0.0037859576 -0.00045042764 0.00433625 -0.0038867388 0.0021280262 -0.0058326796 0.0005757562
-0.0012754151 0.0031172885 0.003046444 -0.0004900813 -0.0068283905 0.002530799 -0.004961119 0.0027816202
0.0033237191 0.0002670189 -0.0035381892 0.00013128787 -0.0053824703 -0.0024362984 0.00029875425 -0.002378848
-0.0017135713 -0.0040675187 0.00096857443 0.0044066515 -0.00075839466 -0.0038575726 0.0010259767 -0.00011035305
-0.0017852939 -0.002730938 -0.0022326058 0.0028073126 -0.002056844 -0.0005854485 -0.0043238024 0.00011730372
-0.0024061045 0.0052653924 0.00017727977 -0.0012555108 -0.002316556 -0.0018865266 0.0018851663 0.0011558025
0.00783227 -0.0019698015 0.0020200359 0.0013403136 0.0036778327 0.0006572326 -0.00060248404 0.0012642044
0.001174766 -0.0031550385 -0.001333506 0.00310378 -0.0017318444 0.0044801375 0.003935658 -0.0001782479
00000000: 8596 303d e208 88bd e95c eabc f0b3 a5bd
00000010: 81f2 92bd a111 72bc 611e a93d 1833 5c3d
00000020: 7b36 80bd 4e89 17bd 27a9 933d f30e afbd
00000030: 66a8 c0bc f7b6 703d 7a7b 69bc 15e3 c6bc
00000040: bf89 cbbc 3990 833d f890 96bd 684e 713c
00000050: 0f3d f23c 7984 6abd ad1c 48bc c08c 90bd
00000060: 4657 d13d 26ea 5cbd 29e2 cf3b 50ee bdbd
00000070: b2e3 bbbc 666f c63d 73f8 b2bd 0de3 3cbd
00000080: 3b1e 9d3c 5336 c6bc f6ea 693d 4133 b8bc
00000090: 2946 223d c266 22bd 4146 87bd a791 25bd
000000a0: 332f c33c 8fc7 3b3d 94b8 50bd 87ad 45b9
000000b0: 321c 573d 3e36 28bd d9af 863d 800a ae3d
000000c0: cc7b 6d3d 4935 c73d 3500 edbc 0d3e 7c3c
000000d0: 5aae b6bd e66c c13d 0ae0 f4bd d237 963d
000000e0: 7670 4fbc a22c 02be 9a9d 15bd 5a9b 7f3d
000000f0: 856f 8abc 1d5d 3dbd d1f5 9abd 0a06 b03d
00000100: 4836 91b5 aeac be36 e289 e934 21a3 0cb7
00000110: 6d08 dfb6 29f3 6a36 a2c9 3a37 8538 3736
00000120: d2d7 b2b6 193e 08b7 e225 bd34 69ba 48b7
00000130: 3e1d 0535 a5d2 05b6 567a e1b3 b944 d435
00000140: e380 4035 d1eb 9bb6 40b7 2236 6033 bbb5
00000150: 3cf8 14b6 e9d5 6736 b3e8 4836 1905 ac36
00000160: eba3 25b6 48eb 4d36 1c7c 4636 86af c937
00000170: 0346 fd36 428c f8b6 e030 05b6 4e78 f336
00000180: 704f 0db5 5168 deb4 5ae7 9e36 da02 bbb5
00000190: 3f45 7336 dd7f 4236 b870 28b7 1acd a636
000001a0: 49ce 2fb6 0d80 4237 f624 11b6 64be b535
000001b0: 2886 8db6 7f23 22b6 0efa 5d37 d324 0bb7
000001c0: abd8 fa36 8acf 9736 8918 b5b5 6c86 d0b5
000001d0: f82f a434 0471 a3b7 2cc9 6336 c657 cfb6
000001e0: 4518 5034 cdbe 0f38 5219 8436 559a 2bb7
000001f0: 41a0 0a36 2b89 a636 4abb 7637 cb35 87b6
00000200: 8f52 643b d41d 78bb 6027 ecb9 1a17 8e3b
00000210: a8b8 7ebb 5b76 0b3b 1020 bfbb 58ee 163a
00000220: d42b a7ba 6c4b 4c3b d9a6 473b cd78 00ba
00000230: b1c0 dfbb c3db 253b e290 a2bb d84b 363b
00000240: c1d2 593b acfe 8b39 f7e0 67bb 52aa 0939
00000250: 6f5f b0bb 4eaa 1fbb 1ea2 9c39 72e6 1bbb
00000260: e999 e0ba d248 85bb eee7 7d3a ac65 903b
00000270: 01cf 46ba 54cf 7cbb 117a 863a 586d e7b8
00000280: 8600 eaba 89f9 32bb e950 12bb e4fa 373b
00000290: 1ecc 06bb c978 19ba afae 8dbb f500 f638
000002a0: bcaf 1dbb 5089 ac3b 2de4 3939 f48f a4ba
000002b0: 5cd1 17bb 5445 f7ba af17 f73a 4c7e 973a
000002c0: ec52 003c c917 01bb 9462 043b 76ad af3a
000002d0: cb07 713b 224a 2c3a 05f0 1dba a9b3 a53a
000002e0: 9bfa 993a c3c4 4ebb 09c9 aeba ca68 4b3b
000002f0: 0eff e2ba 1ece 923b b1f6 803b 0ee8 3ab9

encoder.layers.0.self_attn.out_proj.bias f4 [64]
-0.0011450704 0.0016849504 0.0027759692 0.0009991447 -0.0027968418 -0.002104843 -0.0044395095 -0.0022557518
-0.0071480675 0.0052990476 0.0044816085 -0.0001344048 -0.0036352277 0.0018363387 -0.0021094137 0.0025348866
-0.00082937337 -0.00026183113 0.00028856215 0.0039695576 -0.0019651058 0.001566253 0.0037637951 0.0007070325
0.0030806826 0.004709148 0.0016477676 -0.006239197 0.0041345535 0.0021423067 -0.0052167317 -0.0015136716
-0.0024345974 0.0028118324 0.0004439537 -0.0018228317 -0.0003740147 -0.0045425785 -0.0018804851 -0.0056505464
-0.00014569242 0.002591721 -0.0024916246 0.0008750474 -0.0012684517 0.005803993 -0.001508244 0.002276061
-0.0016372371 0.00068318064 0.0021481498 -0.0039869538 0.0061026504 0.00026491194 -0.00032222221 -0.002663143
0.000733593 0.0034078506 -0.0053479318 0.0014607795 0.0028783525 0.0030239264 -0.0007003603 -0.0016292356
00000000: 3016 96ba 8ed9 dc3a 09ed 353b bcf5 823a
00000010: 384b 37bb 68f1 09bb 4e79 91bb 3cd5 13bb
00000020: 563a eabb a2a3 ad3b 75da 923b 04ef 0cb9
00000030: 003d 6ebb 4db1 f03a 173e 0abb 5720 263b
00000040: 4e6a 59ba 6146 89b9 284a 9739 1013 823b
00000050: 01c9 00bb bb4a cd3a 01aa 763b 2658 393a
00000060: 47e5 493b 324f 9a3b e8f9 d73a 2e72 ccbb
00000070: 267b 873b f165 0c3b 1ef1 aabb 6466 c6ba
00000080: c48d 1fbb b846 383b 75c2 e839 15ec eeba
00000090: 6717 c4b9 e9d9 94bb 9c7a f6ba 3828 b9bb
000000a0: 03c5 18b9 ddd9 293b 864a 23bb 7063 653a
000000b0: 2d42 a6ba 6c2f be3b 45b0 c5ba f829 153b
000000c0: 9098 d6ba 7a17 333a f9c7 0c3b fea4 82bb
000000d0: bef8 c73b e1e3 8a39 efef a8b9 2088 2ebb
000000e0: 984e 403a 3f56 5f3b b43d afbb a077 bf3a
000000f0: bea2 3c3b 112d 463b 6298 37ba 138c d5ba

encoder.layers.0.linear1.bias f4 [128]
-0.018830022 -0.012480705 -0.010378191 -0.0050670383 -0.010035385 -0.012126762 -0.014945562 -0.010458013
-0.022848673 -0.004423553 -0.012192205 -0.0037659346 -0.0024200554 -0.009105469 -0.0056115696 -0.011325824
-0.011372179 -0.0076883477 -0.0006174924 0.0063815154 -0.0061405925 -0.0027481455 -0.019970903 -0.023693807
-0.027715765 -0.007890735 -0.012559867 -0.01568733 -0.0021324551 -0.009555094 -0.012524867 -0.0040148236
-0.0003414593 -0.035546828 -0.019462787 -0.022306785 -0.0055560316 -0.020671995 -0.009919558 -0.003617375
-0.007341946 -0.0043041506 -0.011354751 -0.002974247 -0.022353483 0.0036852662 -0.012774297 -0.006058802
-0.0035930113 -0.01439927 -0.016184317 0.0027129515 0.00036021756 -0.0009521941 -0.011316208 -0.004921831
0.010798296 -0.01140351 -0.01562557 -0.009973643 -0.010018612 -0.025218686 -0.0063767806 -1.8698309e-05
-0.014232444 -8.347903e-06 -0.004854965 -0.02743662 -0.020714168 0.001415404 0.0025731998 -0.006324272
-0.0119643975 -0.018355269 -0.003975344 -0.0143929 -0.013368341 -0.01378542 -0.017611178 -0.024516007
-0.013338754 -0.008356692 -0.021819463 -0.0065008746 -0.024667667 0.0026278554 0.0023704807 -0.0054491484
-0.004383174 -0.01059759 -0.011496595 -0.015069765 -0.0088243345 -0.004060074 0.0041898997 -0.008065976
-0.023961557 0.002546577 -0.016293192 0.0034795734 -0.0014825915 0.003617595 -0.00060899084 -0.010082298
-0.0024919396 0.001182683 -0.001527172 -0.007992125 -0.0104809245 -0.004943083 0.0016794103 -0.010135666
-0.005709817 -0.011047315 -0.014089191 0.003770676 -0.012442457 -0.006374771 -0.009876949 0.0016159475
0.0056170886 -0.011687425 -0.03332015 -0.01906659 -0.0023916312 -0.0039011664 -0.0042796764 -0.0010889232
00000000: 6b41 9abc df7b 4cbc 4a09 2abc 6609 a6bb
00000010: 756b 24bc 54af 46bc 3bde 74bc 1658 2bbc
00000020: 242d bbbc 74f3 90bb d0c1 47bc e6cd 76bb
00000030: cb99 1ebb 1b2f 15bc 42e1 b7bb f38f 39bc
00000040: 6052 3abc 89ee fbbb 37df 21ba 081c d13b
00000050: 0637 c9bb 3b1a 34bb 059a a3bc 8419 c2bc
00000060: 2c0c e3bc 2448 01bc e7c7 4dbc b782 80bc
00000070: a9c0 0bbb f88c 1cbc 1a35 4dbc c88e 83bb
00000080: e405 b3b9 8d99 11bd 6c70 9fbc b8bc b6bc
00000090: 5f0f b6bb 5158 a9bc a485 22bc 7b11 6dbb
000000a0: b594 f0bb d509 8dbb 4709 3abc 96eb 42bb
000000b0: a71e b7bc 8284 713b 494b 51bc ea88 c6bb
000000c0: ba78 6bbb eaea 6bbc f994 84bc c6cb 313b
000000d0: 95db bc39 aa9c 79ba 9e67 39bc 5047 a1bb
000000e0: 56eb 303c cad5 3abc 3201 80bc 7e68 23bc
000000f0: 1b25 24bc 6b97 cebc 50f4 d0bb 50da 9cb7
00000100: 322f 69bc f80d 0cb7 6616 9fbb c3c2 e0bc
00000110: c2b0 a9bc 1485 b93a 21a3 283b d73b cfbb
00000120: 5206 44bc ca5d 96bc 9a43 82bb 33d0 6bbc
00000130: e306 5bbc 3edc 61bc 5145 90bc cbd5 c8bc
00000140: ca8a 5abc 82ea 08bc bbbe b2bc 4a05 d5bb
00000150: d913 cabc 1938 2c3b 115a 1b3b c58e b2bb
00000160: baa0 8fbb 84a1 2dbc 375c 3cbc 2de7 76bc
00000170: f193 10bc 5f0a 85bb 6d4b 893b 2827 04bc
00000180: 074b c4bc 79e4 263b 4d79 85bc 8e09 643b
00000190: 8453 c2ba 2c15 6d3b afa4 1fba 3930 25bc
000001a0: cf4f 23bb 4204 9b3a 642b c8ba 67f1 02bc
000001b0: 2fb8 2bbc 96f9 a1bb a91f dc3a 1010 26bc
000001c0: 6b19 bbbb ccff 34bc 5ad6 66bc 721d 773b
000001d0: 72db 4bbc 74e3 d0bb edd2 21bc 33ce d33a
000001e0: 8e0f b83b 9d7c 3fbc b67a 08bd 8a31 9cbc
000001f0: eabc 1cbb b6aa 7fbb 873c 8cbb 33ba 8eba

encoder.layers.0.linear2.bias f4 [64]
-0.0029881524 0.0034345803 -0.001565504 -0.005838436 -0.0048675514 -0.01209286 0.008064364 -0.0016181098
-0.0047551813 0.01033085 0.004679179 -0.004267437 0.0015653104 0.012413896 -0.008226681 0.00074128323
0.002029989 0.0026185436 0.0029923962 0.007656059 -0.0016487284 -0.015841253 0.016300417 -0.0017618735
0.0011762874 0.0029352198 -0.0014524 -0.0014046523 0.007914216 -0.0004170472 -0.0047862767 -0.004296328
-0.0071240887 -0.0034963104 -0.0003567175 0.0027462835 -0.0048516192 -0.00962882 -0.0008015287 -0.006191676
-0.008258904 0.0034752747 0.009640626 -0.001919724 0.00066569267 0.0074035465 0.0038803746 0.010268146
-0.005419193 0.008507825 0.0011224028 0.00250488 0.01582699 -0.0047904216 0.012642045 0.002934915
0.011453505 0.007876742 -0.0017055415 0.0031991366 -0.008233304 0.0070014102 -0.009680961 -0.008347959
00000000: e1d4 43bb b216 613b 9931 cdba 5a50 bfbb
00000010: fb7f 9fbb 2221 46bc 6520 043c c116 d4ba
00000020: 5ad1 9bbb ba42 293c cc53 993b dbd5 8bbb
00000030: 1a2b cd3a a763 4b3c 33c9 06bc ad52 423a
00000040: 9009 053b df9b 2b3b 141c 443b aedf fa3b
00000050: 251a d8ba 84c5 81bc 7488 853c aaee e6ba
00000060: a82d 9a3a d15c 403b 755e beba 4f1c b8ba
00000070: a1aa 013c 21a7 dab9 33d6 9cbb 36c8 8cbb
00000080: 3071 e9bb 5b22 65bb d005 bbb9 fefa 333b
00000090: 55fa 9ebb 33c2 1dbc ae1d 52ba 8be3 cabb
000000a0: 5b50 07bc 6fc1 633b b7f3 1d3c 409f fbba
000000b0: e181 2e3a 7399 f23b e24d 7e3b ba3b 283c
000000c0: 7c93 b1bb 6864 0b3c 971d 933a ea28 243b
000000d0: 9ba7 813c f8f8 9cbb 9420 4f3c b457 403b
000000e0: 7ba7 3b3c 730d 013c 7a8c dfba 9ba8 513b
000000f0: fbe4 06bc 166c e53b e59c 1ebc e1c5 08bc

encoder.layers.0.norm1.weight f4 [64]
1.0077125 1.0095705 0.9543256 0.98164654 1.0110786 1.0092502 0.95461625 0.9725927
1.0335743 1.022361 0.9918221 0.9822949 0.9880604 1.0231549 0.95141894 0.9839992
0.9715192 1.007852 0.976915 0.9911705 0.9759285 0.98707205 1.004239 0.99282163
0.9759424 0.99661803 1.004579 1.0157245 0.9648784 0.9872274 0.9910764 1.0043457
0.999112 0.97867805 0.97148335 1.017307 0.9994305 0.98126334 0.96152973 0.98979235
0.98795617 1.0005589 1.0101464 0.97698313 0.95228094 1.0031935 1.005334 1.0021772
0.9922251 1.0135672 1.0032265 0.97438467 0.9982882 0.9933428 1.0141287 0.9894316
0.98765296 0.99365836 0.9721714 0.9575295 0.9737571 1.0269612 0.9884618 0.98023325
00000000: b9fc 803f 9b39 813f af4e 743f 304d 7b3f
00000010: 066b 813f 1c2f 813f bb61 743f d6fb 783f
00000020: 2a4c 843f badc 823f 0ee8 7d3f ae77 7b3f
00000030: 87f1 7c3f bdf6 823f 3190 733f 5fe7 7b3f
00000040: 7bb5 783f 4b01 813f 1a17 7a3f 5abd 7d3f
00000050: 73d6 793f c1b0 7c3f e78a 803f 8f29 7e3f
00000060: 5cd7 793f 5c22 7f3f 0b96 803f 4303 823f
00000070: 4502 773f efba 7c3f 2fb7 7d3f 668e 803f
00000080: cec5 7f3f a58a 7a3f 22b3 783f 1e37 823f
00000090: adda 7f3f 1334 7b3f d026 763f 0863 7d3f
000000a0: b2ea 7c3f 5012 803f 7a4c 813f 911b 7a3f
000000b0: afc8 733f a568 803f c9ae 803f 5847 803f
000000c0: 7702 7e3f 92bc 813f ba69 803f 4671 793f
000000d0: d18f 7f3f b74b 7e3f f8ce 813f 644b 7d3f
000000e0: d3d6 7c3f 6560 7e3f 3ae0 783f a720 753f
000000f0: 2548 793f 7773 833f d50b 7d3f 91f0 7a3f

encoder.layers.0.norm1.bias f4 [64]
0.0027749247 0.00098659 -0.0010006924 -0.006509536 -0.00089852593 -0.0078353295 -0.0035228382 0.0016674314
-0.010864437 0.0063080387 0.007995209 -0.0004848263 -0.0078280475 0.0025862895 -0.005055015 -0.00045330438
-0.006391927 0.0009795596 -0.001521843 0.0038836494 -0.003477877 0.0015627396 0.0030957623 -0.004126794
0.004523616 0.0071614385 0.0012001034 -0.004265585 0.0069210758 0.0016068596 -0.00079313776 -0.0045205345
-0.0011581097 0.0001650751 0.0011650507 0.0017113313 0.00031700917 -0.008661501 0.0007385702 -0.0110525545
-7.8639154e-05 0.00191869 -0.002893684 -0.003262834 -0.0009339414 0.005662454 -0.005210065 0.008476564
-0.006973403 0.0032245864 0.0012741176 -0.0017041452 0.008507193 -0.0030619013 -0.00020006797 -0.0027148635
0.00094589184 0.0036759109 -0.0048230323 0.00061960384 -0.00013765611 0.015803488 -0.004760112 -0.006165759
00000000: 83db 353b 7850 813a aa29 83ba f24d d5bb
00000010: 0e8b 6bba c15f 00bc 6bdf 66bb b78d da3a
00000020: c000 32bc aab3 ce3b 56fe 023c 4930 feb9
00000030: 3641 00bc bd7e 293b 8aa4 a5bb 7ca9 edb9
00000040: 5f73 d1bb 9164 803a 9478 c7ba d384 7e3b
00000050: 18ed 63bb d7d4 cc3a 46e2 4a3b 0f3a 87bb
00000060: d73a 943b 80aa ea3b ca4c 9d3a 52c6 8bbb
00000070: 31ca e23b 439d d23a 93ea 4fba fe20 94bb
00000080: b7cb 97ba 0218 2d39 9db4 983a c04e e03a
00000090: 4034 a639 f8e8 0dbc 9b9c 413a c615 35bc
000000a0: 13eb a4b8 8e7c fb3a f6a3 3dbb 45d5 55bb
000000b0: bfd3 74ba 1b8c b93b 31b9 aabb 49e1 0a3c
000000c0: 2581 e4bb 9553 533b 4b00 a73a a05d dfba
000000d0: c161 0b3c 2eaa 48bb 56c9 51b9 daeb 31bb
000000e0: baf5 773a 8de7 703b 870a 9ebb e96c 223a
000000f0: c857 10b9 5176 813c b7fa 9bbb 230a cabb

encoder.layers.0.norm2.weight f4 [64]
1.0282362 1.0095117 1.0010505 0.9975768 1.0093594 1.0072283 0.97598135 0.9922879
1.0199791 1.0270253 1.0107493 0.99571294 1.0114304 1.0458022 0.99327075 0.9924702
0.982102 1.0149274 0.99915457 1.0006238 0.99494565 0.9988856 1.0233294 1.0037755
1.0061005 1.0215073 1.0010806 1.0281538 0.99523354 0.994694 0.9823427 1.0003949
1.0174688 1.0040333 0.98562676 1.0272098 1.0211842 0.9859598 0.9914289 1.0029724
1.0131434 1.0262862 0.9789751 1.0045375 0.9528257 0.9971226 1.0221524 1.0170481
1.0081627 1.0291271 1.0136441 1.0056936 1.0005424 1.0025315 1.0220041 0.98789865
1.0086887 1.0039473 1.0042402 0.9908822 1.0133977 1.0203631 0.99750084 1.0008701
00000000: 3e9d 833f ae37 813f 6c22 803f 3161 7f3f
00000010: b032 813f dbec 803f ead9 793f 9406 7e3f
00000020: ad8e 823f 9175 833f 3c60 813f 0be7 7e3f
00000030: 8d76 813f d9dc 853f fe46 7e3f 8712 7e3f
00000040: 096b 7b3f 24e9 813f 98c8 7f3f 7114 803f
00000050: c2b4 7e3f f7b6 7f3f 75fc 823f b77b 803f
00000060: e7c7 803f c0c0 823f 6923 803f 8b9a 833f
00000070: a0c7 7e3f 44a4 7e3f d07a 7b3f f10c 803f
00000080: 6b3c 823f 2a84 803f 0952 7c3f 9c7b 833f
00000090: 2ab6 823f dd67 7c3f 49ce 7d3f 6661 803f
000000a0: afae 813f 595d 833f 1d9e 7a3f af94 803f
000000b0: 63ec 733f 6d43 7f3f e4d5 823f a22e 823f
000000c0: 7a0b 813f 70ba 833f 17bf 813f 91ba 803f
000000d0: c611 803f f452 803f 08d1 823f ede6 7c3f
000000e0: b61c 813f 5881 803f f18a 803f 75aa 7d3f
000000f0: 04b7 813f 429b 823f 375c 7f3f 831c 803f

encoder.layers.0.norm2.bias f4 [64]
0.0040364796 0.0042435783 -0.004406841 -0.01945912 -0.004321636 -0.01065182 -0.0016745761 -0.0022713891
-0.019596193 0.0119830575 0.0069878856 -0.006069689 0.0009383988 0.017724732 -0.016969485 0.011833858
-0.0011194202 0.003602032 0.0063373987 0.0126683125 -0.00413547 0.0018199445 0.01756799 -0.00068591844
0.0032920379 0.0010693043 0.0011639248 -0.00215988 0.009141122 0.0029884588 -0.008016483 0.0048324536
-0.006435821 -0.0031389042 0.0014648443 0.008402232 -0.0025192439 -0.018790472 0.0018776205 -0.011655403
-0.0120107 0.007351904 0.013790204 0.002403927 -0.0013429675 0.009705816 0.0024868802 0.016535154
-0.01130715 0.009887449 -0.00011225245 0.0015367774 0.011184133 -0.005608684 0.013579783 0.0044595026
0.0157709 0.010401995 9.260716e-05 0.0015385225 -0.012366525 0.014606575 -0.009493872 -0.013254282
00000000: 7244 843b b70d 8b3b 4367 90bb bc68 9fbc
00000010: 839c 8dbb f984 2ebc 737d dbba 96db 14bb
00000020: 3288 a0bc 9654 443c a2fa e43b 3ee4 c6bb
00000030: e1fe 753a 7533 913c 9703 8bbc cce2 413c
00000040: 82b9 92ba 1210 6c3b f4a9 cf3b c18e 4f3c
00000050: d682 87bb 348b ee3a bfea 8f3c 35cf 33ba
00000060: 3bbf 573b e627 8c3a d68e 983a c68c 0dbb
00000070: a5c4 153c 05da 433b 9157 03bc 8f59 9e3b
00000080: 94e3 d2bb 13b6 4dbb 0500 c03a 84a9 093c
00000090: e619 25bb 7aee 99bc 7d1a f63a 4ef6 3ebc
000000a0: 87c8 44bc 3ee8 f03b 4ff0 613c 348b 1d3b
000000b0: 8306 b0ba 2505 1f3c edfa 223b bb74 873c
000000c0: a041 39bc f8fe 213c 1369 ebb8 b16d c93a
000000d0: a73d 373c 0dc9 b7bb bd7d 5e3c 0521 923b
000000e0: f931 813c 216d 2a3c 1736 c238 40a8 c93a
000000f0: f79c 4abc 6a50 6f3c 2f8c 1bbc 7d28 59bc

encoder.layers.1.self_attn.in_proj_bias f4 [192]
-0.0059099374 -0.059547316 -0.06288667 -0.026729982 0.005572746 -0.007363242 -0.017053168 0.07317332
0.0030755645 -0.006818622 0.01294885 -0.060250524 -0.020127488 0.056279257 -0.027350811 0.029753508
0.01922237 -0.013817593 -0.02494488 0.03224285 -0.021880623 -0.043840155 -0.014062737 -0.0034015975
0.058628324 0.047442604 0.0039281333 -0.039756652 -0.0031345882 0.04668783 -0.054737013 0.032251462
0.012257984 -0.019187186 0.027466156 -0.0037520204 0.033594973 -0.031171907 -0.07674048 -0.08233795
0.04734182 0.048091527 -0.009840411 -0.014157847 0.04766987 -0.045961414 -0.0015889665 0.06465079
0.054513145 -0.013420268 -0.00026766796 -0.015324876 0.004313967 0.024504993 -0.042540666 0.042471215
0.033774737 -0.017777389 0.024835568 -0.017559549 0.03261888 0.016662229 0.019810166 0.026578933
-2.5880422e-06 -0.00014531227 1.2302142e-05 -8.737643e-05 3.1983185e-05 -3.1154595e-05 9.470124e-07 -7.0545124e-05
7.6457174e-05 -0.00011658882 -1.0446185e-05 -5.4817633e-06 -6.461233e-05 9.479439e-05 -9.6748525e-05 -1.156566e-05
-0.00011603961 -0.00011822295 -3.725906e-06 -0.00012030558 6.950463e-05 3.7098405e-05 0.00010550567 9.8189594e-05
-1.5853624e-05 -5.7568603e-05 -4.679716e-05 4.8479647e-05 9.002673e-05 6.361881e-05 0.00012871352 -3.149622e-05
5.477316e-05 0.0001013626 5.249896e-05 5.161617e-05 -8.848392e-05 2.5169918e-05 -1.3260986e-05 -5.4889933e-06
3.606525e-05 8.2165876e-05 8.457888e-06 -8.340682e-06 6.0117756e-05 -5.988749e-05 -0.00010355224 -2.0559371e-05
9.732655e-05 3.54343e-05 3.0327312e-05 -3.5117388e-05 -2.4433037e-05 7.0162234e-05 -3.1953146e-05 -2.2094673e-05
-1.2583206e-05 4.253708e-05 2.6149522e-05 -4.0962423e-06 9.890173e-07 2.1071733e-05 1.5790396e-05 1.3269142e-05
-0.0044764327 0.0039592325 0.00011318091 0.0055722925 0.00043123492 0.024688343 0.0055644168 0.0013486829
-0.00389463 -0.0017589978 0.010650709 -0.0038757802 -0.014990086 0.0050964793 0.007467434 0.005663895
-0.00077171705 -0.0050223516 0.0044942372 0.0060760844 0.005113574 0.0014154786 0.0027731154 -0.0003643246
-0.0037003732 0.008282204 0.0030227231 0.0006904932 -0.0006632675 -0.001994173 -0.0023822633 -0.0067713414
0.006902688 0.0005481799 0.0014564947 -5.3908876e-05 -0.004733586 -0.009738408 0.00076928025 0.0026101929
-0.0013412598 0.0047045215 -0.015117242 0.00054758415 -0.0018203699 -0.0070726187 0.0015399809 -0.005515336
-0.0016148891 -0.0054718787 -0.003148721 -0.0026920054 0.00549231 0.0050463662 0.002725357 -0.00015654802
-0.006149995 0.009865341 -0.0006021524 -0.016910592 0.009857687 0.0049554394 0.0037775545 -0.0015818643
00000000: 26a8 c1bb e3e7 73bd baca 80bd d6f8 dabc
00000010: 959b b63b 5a47 f1bb 16b3 8bbc e5db 953d
00000020: 698f 493b bf6e dfbb 6a27 543c 41c9 76bd
00000030: 67e2 a4bc 1485 663d cf0e e0bc a1bd f33c
00000040: 3b78 9d3c 3063 62bc 3459 ccbc 1411 043d
00000050: fe3e b3bc bc91 33bd 6567 66bc 56ed 5ebb
00000060: 4124 703d 2d53 423d 92b7 803b dfd7 22bd
00000070: aa6d 4dbb bd3b 3f3d eb33 60bd 1c1a 043d
00000080: b6d5 483c 722e 9dbc b400 e13c 75e4 75bb
00000090: e29a 093d 3a5c ffbc 1d2a 9dbd cda0 a8bd
000000a0: 7fe9 413d 9ffb 443d ad39 21bc 50f6 67bc
000000b0: 7b41 433d 0942 3cbd de44 d0ba a267 843d
000000c0: 2d49 5f3d afe0 5bbc c955 8cb9 3015 7bbc
000000d0: 2e5c 8d3b b2be c83c 1f3f 2ebd 4cf6 2d3d
000000e0: 6157 0a3d e3a1 91bc f673 cb3c 0bd9 8fbc
000000f0: 609b 053d 3a7f 883c ee48 a23c 10bc d93c
00000100: 3aae 2db6 f75e 18b9 4c65 4e37 dd3d b7b8
00000110: af25 0638 feab 02b8 3236 7e35 a0f1 93b8
00000120: a257 a038 2581 f4b8 0642 2fb7 fdef b7b6
00000130: 7b80 87b8 5acc c638 78e5 cab8 220a 42b7
00000140: 4b5a f3b8 77ee f7b8 940a 7ab6 914c fcb8
00000150: 04c3 9138 1c9a 1b38 ed42 dd38 23eb cd38
00000160: 66fd 84b7 d175 71b8 1148 44b8 a056 4b38
00000170: bccc bc38 176b 8538 46f7 0639 cf1a 04b8
00000180: 3cbc 6538 a292 d438 5432 5c38 717e 5838
00000190: 7190 b9b8 fd23 d337 807b 5eb7 182e b8b6
000001a0: c444 1738 7850 ac38 5ae6 0d37 f5ee 0bb7
000001b0: f326 7c38 b42f 7bb8 2f2a d9b8 ea76 acb7
000001c0: cb1b cc38 4a9f 1438 6867 fe37 024b 13b8
000001d0: 8cf5 ccb7 1024 9338 6e05 06b8 f357 b9b7
000001e0: 751c 53b7 d869 3238 ac5b db37 7472 89b6
000001f0: 60be 8435 34c3 b037 9e75 8437 889e 5e37
00000200: 0aaf 92bb 73bc 813b 8a5b ed38 c797 b63b
00000210: 5f17 e239 353f ca3c b655 b63b 4ac6 b03a
00000220: 0c3d 7fbb 2c8e e6ba 5080 2e3c cd00 7ebb
00000230: fa98 75bc 5e00 a73b 60b1 f43b 3298 b93b
00000240: 0e4d 4aba 8a92 a4bb 6544 933b e419 c73b
00000250: c58f a73b 9587 b93a 28bd 353b d202 bfb9
00000260: f681 72bb 15b2 073c e118 463b 3702 353a
00000270: 21df 2dba acb0 02bb bf1f 1cbb 21e2 ddbb
00000280: f22f e23b bbb3 0f3a dae7 be3a 371c 62b8
00000290: 331c 9bbb d88d 1fbc 86a9 493a c50f 2b3b
000002a0: 36cd afba 6328 9a3b 4fae 77bc c08b 0f3a
000002b0: 7a99 eeba 6dc1 e7bb 2fd9 c93a feb9 b4bb
000002c0: b0aa d3ba 724d b3bb c65a 4ebb 5b6c 30bb
000002d0: d6f8 b33b fd5b a53b e79b 323b 0a27 24b9
000002e0: e685 c9bb 3da2 213c c3d9 1dba 1588 8abc
000002f0: 2382 213c 3d61 a23b d990 773b 8f56 cfba

encoder.layers.1.self_attn.out_proj.bias f4 [64]
0.0076837945 -0.009695822 -0.0016145576 -0.0071848445 -0.0019599407 -0.009742761 0.006672623 0.0074091144
-0.005897789 0.0019823145 0.0034495925 0.0021208434 0.0099559985 0.0100909965 -0.0043474054 -0.0032807065
-0.005584909 -0.0032090275 -0.0051391562 0.0056808325 -0.004803886 -0.0045527164 0.0041966336 -0.00485057
0.009099452 -0.0008942836 0.0031696057 0.00036640535 0.008115935 0.0018284569 0.019838883 -0.0044496353
-0.0066664596 0.0027925104 -0.003717423 -0.0013575722 -0.0055979816 -0.009355034 -0.0037574738 -0.005240986
-0.008564946 -0.002714562 -0.011672498 -0.016684225 0.00050586904 0.004915773 0.0074435277 0.01713092
-0.0060708807 0.0034508037 -0.0030302608 0.0041092527 0.009665193 -0.008806935 0.0062818085 0.0101808375
0.006539448 0.0044050417 -0.005948703 0.008613298 -0.007881928 0.008455832 -0.009307581 -0.018656332
00000000: 57c8 fb3b 3adb 1ebc 909f d3ba d86e ebbb
00000010: 5972 00bb 1aa0 1fbc 05a6 da3b 28c8 f23b
00000020: 3d42 c1bb b8e9 013b 8f12 623b d9fd 0a3b
00000030: 7c1e 233c b554 253c ae74 8ebb 1f01 57bb
00000040: 9d01 b7bb 8c4e 52bb 5e66 a8bb 4726 ba3b
00000050: eb69 9dbb f42e 95bb ea83 893b 88f1 9ebb
00000060: de15 153c 5b6e 6aba 29b9 4f3b 181a c039
00000070: b3f8 043c d5a8 ef3a 2785 a23c 3fce 91bb
00000080: 5172 dabb 8d02 373b 02a0 73bb 90f0 b1ba
00000090: 466f b7bb db45 19bc f33f 76bb 94bc abbb
000000a0: fd53 0cbc cbe6 31bb 013e 3fbc 5bad 88bc
000000b0: 4c9c 043a 7e14 a13b d6e8 f33b 2556 8c3c
000000c0: 3dee c6bb e126 623b 5797 46bb e9a6 863b
000000d0: c25a 1e3c f64a 10bc a1d7 cd3b 87cd 263c
000000e0: de48 d63b 2b58 903b 56ed c2bb ca1e 0d3c
000000f0: 3423 01bc 548a 0a3c d37e 18bc 2ad5 98bc

encoder.layers.1.linear1.bias f4 [128]
-0.0053255903 -0.012561922 -0.000559188 -0.0009052874 0.004288216 0.022258533 -0.003582478 -0.0030893337
-0.011397193 -0.0022102592 0.0047969567 0.010612305 0.0016247564 0.0035839453 -0.004742598 0.008979113
0.0056633553 -0.006245964 -0.018753491 -0.0068942476 0.0036816923 -0.004666728 0.0016824049 -0.0073192604
-0.019825794 0.010542292 -0.005865071 0.0068278476 0.0089388965 -0.011973312 0.005767844 0.006440398
-0.014017335 0.00057324243 0.009289785 0.01070676 0.004091342 0.001272679 -0.0033610999 0.006309354
-0.0057939156 -0.0040116766 -0.0031571812 -0.003072952 -0.020136518 0.019336753 -0.013606592 -0.013810312
-0.008906033 -0.018490132 -0.007676708 0.012551525 -0.0176736 0.00808099 -0.01640244 -0.012895794
-0.02163242 0.008015465 -0.02228931 0.012972079 -0.0021522057 0.00053495076 0.00072683295 -0.009572813
-0.0050340085 -0.0003533846 -0.010456365 -0.008267308 0.003046178 -0.0062860353 -0.024185004 -0.017014466
-0.0066286656 0.0038037885 -0.00949764 -0.0060575926 -0.005324299 -0.0077878605 -0.009176383 -0.0023453378
-0.012068793 0.0049811555 -0.0029928673 -0.013425915 -0.018120363 -0.02463034 0.015167241 0.005752977
-0.0037499268 0.0067488058 0.008538641 -0.0048529957 0.010541879 0.011136548 -0.0084365215 -0.014382459
-0.005569511 -0.0029462874 -0.00390049 0.0028689879 -0.0035993378 -0.010972183 -0.020240696 0.0020432186
0.0025754175 -0.014640137 -0.0135638965 -0.00073912746 -0.006817556 0.0032076673 -0.02135457 0.008824302
-0.007955229 -0.02170247 -0.013888074 -0.018257312 -0.007258985 -0.0030511639 -0.0015397244 0.0034116914
0.0075694667 0.0045655714 -0.010589516 0.0008754545 -0.0038730763 -0.002439519 -0.012412463 0.036072586
00000000: 4a82 aebb 85d0 4dbc 7996 12ba cf50 6dba
00000010: 2a84 8c3b 8757 b63c 02c8 6abb 6b76 4abb
00000020: 4bbb 3abc ffd9 10bb ca2f 9d3b 3cdf 2d3c
00000030: c7f5 d43a a0e0 6a3b cc67 9bbb 211d 133c
00000040: ab93 b93b f2aa ccbb eca0 99bc 24e9 e1bb
00000050: 8c48 713b 5aeb 98bb 2484 dc3a 68d6 efbb
00000060: b469 a2bc 94b9 2c3c c82f c0bb 23bc df3b
00000070: 7374 123c b62b 44bc 2f00 bd3b f909 d33b
00000080: f7a8 65bc a645 163a 2f34 183c 686b 2f3c
00000090: aa10 863b 05d0 a63a e645 5cbb b3be ce3b
000000a0: e3da bdbb 6274 83bb b6e8 4ebb 9463 49bb
000000b0: 57f5 a4bc 1c68 9e3c 2fee 5ebc a644 62bc
000000c0: 9cea 11bc 9e78 97bc e58c fbbb e9a4 4d3c
000000d0: 3ac8 90bc 2166 043c 695e 86bc e148 53bc
000000e0: 7936 b1bc 4c53 033c 1298 b6bc d888 543c
000000f0: 050c 0dbb f03b 0c3a ef88 3e3a 4ad7 1cbc
00000100: 53f4 a4bb 7a46 b9b9 2c51 2bbc 9a73 07bc
00000110: 63a2 473b 16fb cdbb a11f c6bc ec61 8bbc
00000120: 4735 d9bb fb48 793b fd9b 1bbc c57e c6bb
00000130: 7577 aebb 4f31 ffbb 8a58 16bc 3db4 19bb
00000140: 30bc 45bc f638 a33b fb23 44bb 5ef8 5bbc
00000150: 2871 94bc 91c5 c9bc 0580 783c 7883 bc3b
00000160: 55c1 75bb 1625 dd3b a8e5 0b3c e105 9fbb
00000170: d8b7 2c3c 1176 363c 5639 0abc 68a4 6bbc
00000180: 7280 b6bb 8016 41bb 5d9f 7fbb a105 3c3b
00000190: dee2 6bbb acc4 33bc d1cf a5bc 85e7 053b
000001a0: 56c8 283b 2fdd 6fbc 1b3b 5ebc 01c2 41ba
000001b0: ce65 dfbb ba37 523b c7ef aebc ce93 103c
000001c0: a656 02bc 61c9 b1bc ce8a 63bc 5c90 95bc
000001d0: c8dc edbb 09f6 47bb 94d0 c9ba af96 5f3b
000001e0: 4a09 f83b ca9a 953b a67f 2dbc c27e 653a
000001f0: 70d3 7dbb 56e0 1fbb a55d 4bbc d9c0 133d

encoder.layers.1.linear2.bias f4 [64]
0.011589971 -0.0077641555 0.003658269 -0.009515831 0.007094262 -0.014741215 -0.000121281715 0.009619642
-0.009220842 -0.004831361 -0.008250066 -0.0020375554 0.01452934 0.017245566 -0.015501613 -0.002423192
-0.013450925 0.0008233286 0.00071561267 0.020339541 -0.007156386 -0.0040885904 0.002085173 -0.002982445
0.014306009 -0.00080558634 -0.0009439586 -0.010757441 0.011264394 0.013642138 0.025356818 -0.0021460094
-0.009718506 -0.01213207 0.002345008 0.004713129 -0.0021405097 -0.014021291 -0.0026264845 -0.006308199
-0.008225376 -0.0017198988 -0.00083978527 -0.00852325 -0.0025780709 0.007563428 -0.0026266272 0.0190027
-0.013539854 0.006875373 0.0023576994 -0.00048970315 0.0065671694 -0.0112107 0.006516063 0.009681993
0.020129569 0.015188703 0.006448829 0.010091842 -0.013019682 0.011520039 -0.009991658 -0.011343228
00000000: dde3 3d3c 756a febb 92bf 6f3b 4ae8 1bbc
00000010: fc76 e83b 2385 71bc a058 feb8 b49b 1d3c
00000020: 0413 17bc 6550 9ebb 492b 07bc 8288 05bb
00000030: 780c 6e3c 9346 8d3c 7afa 7dbc 6ace 1ebb
00000040: 4561 5cbc a6d4 573a f497 3b3a 1c9f a63c
00000050: 1e80 eabb 95f9 85bb 66a7 083b 2075 43bb
00000060: c063 6a3c fc2d 53ba fd73 77ba fa3f 30bc
00000070: 4b8e 383c 4683 5f3c 1ab9 cf3c 10a4 0cbb
00000080: 5e3a 1fbc 97c5 46bc b5ae 193b 9770 9a3b
00000090: cb47 0cbb 8fb9 65bc 1921 2cbb 02b5 cebb
000000a0: bac3 06bc 3a6e e1ba 0925 5cba 1aa5 0bbc
000000b0: daf4 28bb a2d6 f73b 7e23 2cbb 8dab 9b3c
000000c0: 44d6 5dbc cf4a e13b a283 1a3b 6c5f 00ba
000000d0: 6931 d73b 15ad 37bc b384 d53b 39a1 1e3c
000000e0: c4e6 a43c 0ada 783c b350 d33b 4158 253c
000000f0: 8150 55bc 8cbe 3c3c 0db4 23bc f2d8 39bc

encoder.layers.1.norm1.weight f4 [64]
1.0073321 0.9860901 1.0069865 0.9897298 1.004851 0.9997274 0.98391587 0.9781803
0.96161896 1.0062685 1.0103568 0.966902 0.97289836 1.0081346 0.9996749 1.0109488
0.9672219 0.97856325 0.9975323 0.98696345 1.0105721 0.9896268 1.025325 0.9758181
0.997029 1.0008718 0.96443313 0.9859012 1.0008999 0.97361696 0.94944733 0.9926775
0.99026114 0.99321175 0.97959983 0.9886874 1.0053815 0.9986237 0.9908984 1.0111705
0.9760089 1.0230477 0.96484077 0.9725061 0.9778811 0.9758292 0.9950633 0.9636077
1.0023695 0.9863621 0.98718023 0.98963815 1.0018706 0.9988218 0.97273844 0.9114777
0.9919081 0.9982821 1.0259162 0.97181815 0.99468255 1.0092412 0.98260605 0.9816569
00000000: 42f0 803f 6770 7c3f efe4 803f ef5e 7d3f
00000010: f59e 803f 23ee 7f3f e9e1 7b3f 066a 7a3f
00000020: a92c 763f 68cd 803f 5f53 813f e486 773f
00000030: de0f 793f 8e0a 813f b2ea 7f3f c566 813f
00000040: db9b 773f 1f83 7a3f 475e 7f3f a3a9 7c3f
00000050: 6d5a 813f 2f58 7d3f d93d 833f 37cf 793f
00000060: 4b3d 7f3f 911c 803f 17e5 763f 0564 7c3f
00000070: 7d1d 803f f63e 793f fb0e 733f 1d20 7e3f
00000080: c181 7d3f 2043 7e3f 0ec7 7a3f 9e1a 7d3f
00000090: 57b0 803f cea5 7f3f 84ab 7d3f 096e 813f
000000a0: b8db 793f 3af3 823f ceff 763f 29f6 783f
000000b0: 6a56 7a3f f1cf 793f 78bc 7e3f ffae 763f
000000c0: a54d 803f 3a82 7c3f d8b7 7c3f ed58 7d3f
000000d0: 4c3d 803f c9b2 7f3f 6305 793f 9a56 693f
000000e0: b0ed 7d3f 6a8f 7f3f 3951 833f 13c9 783f
000000f0: 84a3 7e3f d12e 813f 128c 7b3f de4d 7b3f

encoder.layers.1.norm1.bias f4 [64]
0.0103351185 -0.009944086 -0.0023704648 -0.0044004987 -0.0012050893 -0.008742813 0.0038380239 0.011192182
-0.0007962829 0.0010539328 0.0059499065 0.003320925 0.012836374 0.010419374 -0.0033787186 -0.007826414
-0.0044241515 0.00072798127 -0.0042064264 0.003959317 -0.0069039697 -0.0029352526 0.00621266 -0.0055222022
0.014457075 -0.0010454094 0.0041739116 0.0008582659 0.008473266 0.00019552035 0.020566558 -0.0031254452
-0.0034627875 -0.000766391 -0.00040398838 0.002687223 -0.0013229331 -0.0027015526 -0.00031857906 -0.00093647814
-0.002566895 0.0022114576 -0.0105235735 -0.014993484 0.00088213035 0.0043593096 0.0021642486 0.020361008
-0.0043372526 0.0055285413 0.00037068373 0.007215973 0.009925995 -0.009006888 0.0052537066 0.011783613
0.00582017 0.008303051 -6.83194e-05 0.009677601 -0.008989254 0.007563347 -0.0119046755 -0.015373614
00000000: a154 293c 85ec 22bc cd59 1bbb 0f32 90bb
00000010: 16f4 9dba 043e 0fbc 5b87 7b3b 6a5f 373c
00000020: a4bd 50ba 1e24 8a3a 6ff7 c23b e0a3 593b
00000030: a84f 523c 06b6 2a3c 7e6d 5dbb 5c3a 00bc
00000040: 79f8 90bb ffd5 3e3a 10d6 89bb 29bd 813b
00000050: b23a e2bb 5e5d 40bb 9293 cb3b 97f3 b4bb
00000060: 5edd 6c3c 1e06 89ba 4fc5 883b 40fd 603a
00000070: 74d3 0a3c 9804 4d39 337b a83c 45d4 4cbb
00000080: efef 62bb a1e7 48ba 67ce d3b9 1f1c 303b
00000090: 4566 adba 880c 31bb f506 a7b9 fc7d 75ba
000000a0: 5a39 28bb 1aee 103b 116b 2cbc 3ba7 75bc
000000b0: c43e 673a 8ad8 8e3b 11d6 0d3b 21cc a63c
000000c0: 831f 8ebb c428 b53b 5458 c239 f873 ec3b
000000d0: a4a0 223c a091 13bc 4927 ac3b 0e10 413c
000000e0: 20b7 be3b 8509 083c b346 8fb8 cd8e 1e3c
000000f0: aa47 13bc f4d5 f73b d40b 43bc 9ce1 7bbc

encoder.layers.1.norm2.weight f4 [64]
1.0975285 1.0289438 1.05527 1.0301757 1.0341897 1.0370384 1.0254397 1.0514627
1.0408832 1.0689114 1.0436447 1.0216266 1.0553412 1.0531222 1.0368007 1.0537684
1.0478193 1.0204195 1.0547273 1.0458097 1.0785564 1.0328498 1.076968 1.0433564
1.0599294 1.0585768 1.0297788 1.0524778 1.0391556 1.0098345 1.0211567 1.0407537
1.0556991 1.020621 1.0387846 1.0622419 1.0536503 1.0655164 1.0580674 1.0781107
1.029895 1.0572839 1.0147036 1.0529262 1.0562197 1.0314877 1.040969 1.0552294
1.0536332 1.0237818 1.0496123 1.0564133 1.0472363 1.037678 1.0586655 0.98686594
1.0780895 1.047458 1.0675024 1.0347757 1.0425702 1.0533915 1.0342475 1.0931491
00000000: d07b 8c3f 6eb4 833f 1613 873f ccdc 833f
00000010: 5460 843f adbd 843f 9c41 833f 5496 863f
00000020: a93b 853f 17d2 883f 2696 853f a9c4 823f
00000030: 6c15 873f b5cc 863f e3b5 843f e2e1 863f
00000040: f11e 863f 1b9d 823f 4e01 873f 18dd 853f
00000050: 230e 8a3f 6c34 843f 16da 893f b48c 853f
00000060: c4ab 873f 727f 873f cbcf 833f 98b7 863f
00000070: 0d03 853f 4242 813f 43b5 823f 6b37 853f
00000080: 2621 873f b5a3 823f e5f6 843f 8bf7 873f
00000090: 03de 863f d762 883f c16e 873f 88ff 893f
000000a0: 99d3 833f 1455 873f cfe1 813f 49c6 863f
000000b0: 3532 873f ca07 843f 793e 853f c211 873f
000000c0: 74dd 863f 480b 833f b259 863f 8d38 873f
000000d0: d70b 863f a2d2 843f 5a82 873f 3fa3 7c3f
000000e0: d6fe 893f 1b13 863f eba3 883f 8873 843f
000000f0: f172 853f 88d5 863f 3962 843f 4fec 8b3f

encoder.layers.1.norm2.bias f4 [64]
0.03176355 0.009389844 0.016237658 -0.030304734 0.034378648 -0.023657942 -0.00051197864 0.013301709
-0.03579007 0.03544214 0.0008862088 -0.02830719 0.026674924 0.039319217 -0.041463133 -0.026763666
-0.025245888 -0.00973843 0.0033240034 0.04129295 -0.016156696 0.012760935 0.023861228 -0.030349597
0.032144394 0.004459993 -0.007304357 -0.014600868 0.030536793 0.003522374 -0.002340919 0.01931641
-0.0046706176 -0.027771717 -0.01399429 0.043447174 0.0010712715 -0.018377652 -0.011541828 -0.009501978
0.030302837 0.008861661 -0.004646564 -0.006560782 0.011557206 0.017072622 0.0052507445 0.041631553
-0.028176202 0.023309274 0.012797157 0.0033915837 0.019617205 -0.024000807 0.028851911 0.014436477
0.036858026 0.036284816 -0.023994667 0.0011812306 -0.04315111 0.019488353 -0.024082111 -0.018473973
00000000: 7f1a 023d dcd7 193c d604 853c a241 f8bc
00000010: a0d0 0c3d 4dce c1bc 4e36 06ba 69ef 593c
00000020: 9c98 12bd c72b 113d 7750 683a 7be4 e7bc
00000030: 5f85 da3c 300d 213d 3fd5 29bd 7a3f dbbc
00000040: 77d0 cebc f08d 1fbc 86d7 593b cc22 293d
00000050: 0c5b 84bc 3e13 513c 9f78 c33c b89f f8bc
00000060: d7a9 033d 2225 923b 6359 efbb 7b38 6fbc
00000070: 4c28 fa3c a1d7 663b 1b6a 19bb 733d 9e3c
00000080: fb0b 99bb 8381 e3bc 4e48 65bc aaf5 313d
00000090: e869 8c3a bb8c 96bc ef19 3dbc 2fae 1bbc
000000a0: a83d f83c 8030 113c 3442 98bb d4fb d6bb
000000b0: 6f5a 3d3c e2db 8b3c 700e ac3b d985 2a3d
000000c0: c7d1 e6bc 17f3 be3c 2bab 513c 5545 5e3b
000000d0: 43b4 a03c 579d c4bc d85a ec3c f986 6c3c
000000e0: 71f8 163d 639f 143d 7790 c4bc 86d3 9a3a
000000f0: 38bf 30bd 0aa6 9f3c d947 c5bc bb56 97bc

phase_head.0.bias f4 [128]
0.008008339 0.011478231 -0.004207078 0.0061503057 0.0061005736 -0.005088197 -0.025207248 0.018067868
0.016858768 0.02366546 -0.019843278 0.018818172 -0.010938034 0.0007925819 0.016545588 0.035992555
-0.021351412 -0.01151141 0.014596862 0.014212975 0.025168408 -0.011970113 0.03092468 0.024688166
0.01638333 -0.0011940184 0.007842726 0.008787827 0.006558974 0.022825882 -0.013433254 -0.0008335524
-0.0041044233 0.02718174 -0.0033620193 0.01125509 0.023725722 0.048692025 -0.012673834 0.026139516
-5.5380387e-06 -0.0004822202 0.010372575 -0.021236828 -0.011510127 0.011768589 0.02342785 0.024015285
0.009789752 0.012842963 -0.013547199 -0.0041240565 -0.0043666204 0.0337972 -0.016336435 0.047981013
0.036075667 -0.01757672 -0.009862142 0.0023347614 0.02157856 0.02447546 -0.033835072 0.019632831
-0.004916185 -0.0037881744 0.00842567 0.008116331 0.019161904 0.04358077 -0.01048576 -0.0142533835
0.016397767 0.006452795 -0.021499678 -0.015319782 0.0006310495 0.020378362 0.021172404 -0.02679164
0.008116703 0.02333746 -0.009621896 0.024503317 -0.0005167041 0.011785525 0.025128787 -0.012798179
0.028919237 0.0120817125 0.0031463527 0.0048192353 0.027156595 0.0071564727 -0.037711203 -0.0513191
0.040321156 0.029771218 0.012602284 0.017397854 0.041814327 0.01637168 0.019978842 0.00083945744
-0.004707992 0.016660163 -0.00878824 -0.006013409 0.0165989 -0.0039265105 0.011877772 0.0022198337
-0.016805073 0.027563486 0.021465365 0.026668115 0.010548872 0.03314079 -0.06653844 0.014197009
-0.017682668 0.026410108 0.013840017 0.013682787 0.034337036 0.0029574938 0.010160959 0.007740933
00000000: 6935 033c 310f 3c3c 87db 89bb 8188 c93b
00000010: 52e7 c73b e4ba a6bb 6e7f cebc 1103 943c
00000020: 661b 8a3c 11de c13c 5f8e a2bc 9128 9a3c
00000030: 7135 33bc 45c5 4f3a 9d8a 873c ee6c 133d
00000040: 28e9 aebc 5a9a 3cbc ad27 6f3c 8add 683c
00000050: fa2d ce3c 4b1e 44bc c155 fd3c d63e ca3c
00000060: 5536 863c 9c80 9cba c77e 003c d1fa 0f3c
00000070: a9ec d63b 58fd ba3c 2717 5cbc c182 5aba
00000080: 667e 86bb 3eac de3c 5355 5cbb 4567 383c
00000090: 725c c23c 4a71 473d eaa5 4fbc 8a22 d63c
000000a0: 64d3 b9b6 80d2 fcb9 bcf1 293c dbf8 adbc
000000b0: f994 3cbc 0ad1 403c c3eb bf3c b4bb c43c
000000c0: 3265 203c 4b6b 523c 12f5 5dbc 1823 87bb
000000d0: de15 8fbb ef6e 0a3d fdd3 85bc bd87 443d
000000e0: 14c4 133d 0efd 8fbc d294 21bc cc02 193b
000000f0: 85c5 b03c c380 c83c a596 0abd 08d5 a03c
00000100: f317 a1bb 0543 78bb d20b 0a3c 5cfa 043c
00000110: 6df9 9c3c c081 323d 77cc 2bbc 0687 69bc
00000120: 9c54 863c f871 d33b 1820 b0bc d3ff 7abc
00000130: 046d 253a 86f0 a63c c071 ad3c 247a dbbc
00000140: ebfb 043c 332e bf3c 28a5 1dbc 2ebb c83c
00000150: 6d73 07ba 1318 413c e3da cd3c 74af 51bc
00000160: 09e8 ec3c 60f2 453c 0a33 4e3b adea 9d3b
00000170: 8277 de3c d880 ea3b 1077 1abd fa33 52bd
00000180: cc27 253d c5e2 f33c cf79 4e3c f285 8e3c
00000190: 8045 2b3d e71d 863c abaa a33c 090f 5c3a
000001a0: 8045 9abb e57a 883c 8dfc 0fbc 210c c5bb
000001b0: 6bfa 873c f5a9 80bb fd9a 423c a17a 113b
000001c0: cbaa 89bc d2cc e13c 22d8 af3c 1777 da3c
000001d0: 2dd5 2c3c a3be 073d 4e45 88bd 929a 683c
000001e0: 3edb 90bc 035a d83c 3dc1 623c c52d 603c
000001f0: fea4 0c3d 83d2 413b 277a 263c a7a7 fd3b

phase_head.3.bias f4 [4]
0.017584514 -0.005330407 -0.015544756 -0.015284642
00000000: 660d 903c b2aa aebb 6faf 7ebc 6f6c 7abc

urgency_head.0.bias f4 [128]
-0.009421546 0.010975326 -0.008365463 0.009647181 0.0040431456 0.027853614 -0.004739321 -0.0035755748
0.01760588 -0.007767085 0.025059592 8.635793e-05 -0.009312073 0.01162758 0.01020722 0.021667488
0.01428288 0.032598127 0.010880388 0.024825905 0.015886016 0.025628462 -0.0050645433 -0.0038892187
-0.010988392 0.012744957 0.031070484 0.036336076 0.031850204 0.041599125 0.010851137 0.0266686
-0.008378979 0.010131837 -8.061835e-05 0.017140528 0.017279694 0.015370193 0.0595339 0.0006986931
-0.020317469 0.021490755 0.029862931 -0.010269225 0.015360839 -0.0001917148 -0.011208517 0.00899559
0.027889865 -0.0036586532 -0.018167846 0.02160478 0.0005245865 0.045567967 0.0131913135 0.0017647808
-0.014119974 0.006765394 0.02585174 0.062006526 0.019789886 0.007832819 0.019252338 -0.0057739173
-0.024681188 -0.013022778 0.016612716 -0.0042946674 0.017657867 0.0330828 0.014099198 0.024581704
0.0285042 -0.009936869 0.042703353 -0.0027641167 0.024240747 -0.009566477 -0.02295676 0.014688884
0.01909454 0.040465683 -0.01325869 0.0039938744 0.002288203 0.005923027 -0.022884596 0.028110337
0.03615496 -0.0070699896 -0.011439473 -0.0056668404 0.023953728 0.031589847 0.04615454 0.038183473
-0.026983708 0.028819062 0.022434192 0.029357608 0.0032727355 -0.015990915 0.005529105 0.022867335
0.03865755 0.053949006 -0.014490352 0.033462353 -0.017964466 -0.025842499 -0.02578514 0.035367653
0.006718565 0.016436525 0.031998772 0.018410882 -0.003026346 0.004427115 0.018500822 0.03433898
0.017339675 0.02139906 -0.01593055 0.038664144 0.023854002 -0.012026342 0.034034215 -0.009029083
00000000: d45c 1abc dbd1 333c 4c0f 09bc 360f 1e3c
00000010: 5d7c 843b 432d e43c 4e4c 9bbb 3154 6abb
00000020: 353a 903c 0883 febb c649 cd3c 101b b538
00000030: aa91 18bc 9b81 3e3c 2f3c 273c 0480 b13c
00000040: be02 6a3c 9d85 053d a843 323c b25f cb3c
00000050: 6423 823c c8f2 d13c 78f4 a5bb 43e2 7ebb
00000060: a808 34bc 39d0 503c 8787 fe3c 23d5 143d
00000070: 5c75 023d d863 2a3d f8c8 313c 1c78 da3c
00000080: fc47 09bc 0100 263c a611 a9b8 4b6a 8c3c
00000090: 258e 8d3c 43d3 7b3c d2d9 733d 8028 373a
000000a0: d270 a6bc 610d b03c 1ba3 f43c 4040 28bc
000000b0: 07ac 7b3c 0d07 49b9 eda3 37bc 3d62 133c
000000c0: 4979 e43c 04c6 6fbb bcd4 94bc 82fc b03c
000000d0: 6784 093a 7aa5 3a3d 6120 583c 3850 e73a
000000e0: 7757 67bc 3db0 dd3b 07c7 d33c 8efa 7d3d
000000f0: 661e a23c 3955 003c 14b7 9d3c 2133 bdbb
00000100: 3430 cabc 7d5d 55bc 6417 883c 48ba 8cbb
00000110: 3ba7 903c d581 073d 5300 673c 925f c93c
00000120: a481 e93c 40ce 22bc b6e9 2e3d 2f26 35bb
00000130: 8894 c63c b6bc 1cbc d10f bcbc a5a9 703c
00000140: 276c 9c3c 58bf 253d fa3a 59bc 0cdf 823b
00000150: adf5 153b f415 c23b 7a78 bbbc a647 e63c
00000160: 3917 143d 5fab e7bb a16c 3bbc e7b0 b9bb
00000170: 9c3a c43c 5b64 013d 8b0c 3d3d 4666 1c3d
00000180: f00c ddbc f415 ec3c e9c7 b73c 5e7f f03c
00000190: 647b 563b 61ff 82bc 7f2d b53b 4754 bb3c
000001a0: 6157 1e3d a2f9 5c3d f168 6dbc d20f 093d
000001b0: 372a 93bc a6b3 d3bc 5c3b d3bc acdd 103d
000001c0: 6827 dc3b e4a5 863c 2511 033d 6bd2 963c
000001d0: a955 46bb 5511 913b 098f 973c 08a7 0c3d
000001e0: ef0b 8e3c 154d af3c c980 82bc 4b5e 1e3d
000001f0: 7869 c33c 220a 45bc 7667 0b3d b8ee 13bc

urgency_head.3.bias f4 [4]
0.022683712 -0.028148016 -0.018811967 0.000724643
00000000: 31d3 b93c ab96 e6bc 8e1b 9abc f8f5 3d3a

token_embed.weight_quantized u1 [8000, 64]
166 130 119 131 137 108 145 149
103 126 142 138 129 118 149 148
105 129 138 122 140 95 131 153
141 142 102 140 127 117 169 160
131 102 114 110 122 148 151 128
137 95 116 109 144 178 121 151
140 174 102 79 135 86 161 140
127 125 157 136 145 123 104 119
116 135 102 121 149 148 157 141
149 136 90 74 172 85 84 145
158 96 129 97 144 170 120 133
119 95 122 105 108 83 144 102
127 103 142 145 148 138 112 123
121 191 124 96 129 130 141 146
132 116 77 151 113 124 136 119
171 83 144 156 158 120 134 145
120 155 123 133 88 102 145 105
94 151 176 133 130 103 121 117
140 137 131 165 133 144 158 125
141 118 127 105 108 150 120 159
124 110 119 118 128 146 99 117
144 131 110 130 119 142 147 132
137 153 148 132 126 146 143 134
111 145 133 149 139 145 118 76
122 131 107 98 119 104 144 115
69 123 126 124 92 111 117 146
128 137 126 146 102 147 112 130
133 143 88 98 149 117 123 142
144 127 116 145 120 114 127 167
127 124 91 152 140 156 117 156
116 134 138 106 131 104 158 108
130 119 129 142 135 168 127 147
00000000: a682 7783 896c 9195 677e 8e8a 8176 9594
00000010: 6981 8a7a 8c5f 8399 8d8e 668c 7f75 a9a0
00000020: 8366 726e 7a94 9780 895f 746d 90b2 7997
00000030: 8cae 664f 8756 a18c 7f7d 9d88 917b 6877
00000040: 7487 6679 9594 9d8d 9588 5a4a ac55 5491
00000050: 9e60 8161 90aa 7885 775f 7a69 6c53 9066
00000060: 7f67 8e91 948a 707b 79bf 7c60 8182 8d92
00000070: 8474 4d97 717c 8877 ab53 909c 9e78 8691
00000080: 789b 7b85 5866 9169 5e97 b085 8267 7975
00000090: 8c89 83a5 8590 9e7d 8d76 7f69 6c96 789f
000000a0: 7c6e 7776 8092 6375 9083 6e82 778e 9384
000000b0: 8999 9484 7e92 8f86 6f91 8595 8b91 764c
000000c0: 7a83 6b62 7768 9073 457b 7e7c 5c6f 7592
000000d0: 8089 7e92 6693 7082 858f 5862 9575 7b8e
000000e0: 907f 7491 7872 7fa7 7f7c 5b98 8c9c 759c
000000f0: 7486 8a6a 8368 9e6c 8277 818e 87a8 7f93

pos_embed.weight_quantized u1 [32, 64]
147 85 130 93 154 83 127 185
70 165 49 136 136 164 146 155
117 132 130 151 103 79 125 129
110 108 117 167 148 88 136 170
110 177 44 126 138 78 140 132
128 127 85 129 163 118 118 146
148 175 86 118 144 116 132 129
176 108 149 92 123 244 78 135
143 81 145 137 175 130 131 131
140 113 134 124 130 140 97 132
106 100 106 135 108 183 77 146
144 154 123 167 114 128 128 110
147 131 121 81 97 184 74 157
137 109 156 103 110 160 120 144
138 121 126 110 139 130 144 116
127 135 140 100 155 143 133 148
122 100 147 146 169 136 152 106
147 125 125 125 145 141 143 106
140 139 136 146 97 117 131 175
147 142 144 133 128 123 125 77
157 98 78 96 106 155 154 146
122 141 184 111 110 135 156 120
124 197 167 164 127 133 160 99
90 111 116 84 112 136 148 163
171 134 125 138 143 141 127 128
127 133 92 120 128 123 129 147
93 167 104 176 157 143 144 93
80 158 111 140 135 189 133 134
131 118 128 153 89 136 146 89
131 118 135 152 101 157 136 141
121 148 96 130 172 151 116 164
108 87 132 135 125 138 98 87
00000000: 9355 825d 9a53 7fb9 46a5 3188 88a4 929b
00000010: 7584 8297 674f 7d81 6e6c 75a7 9458 88aa
00000020: 6eb1 2c7e 8a4e 8c84 807f 5581 a376 7692
00000030: 94af 5676 9074 8481 b06c 955c 7bf4 4e87
00000040: 8f51 9189 af82 8383 8c71 867c 828c 6184
00000050: 6a64 6a87 6cb7 4d92 909a 7ba7 7280 806e
00000060: 9383 7951 61b8 4a9d 896d 9c67 6ea0 7890
00000070: 8a79 7e6e 8b82 9074 7f87 8c64 9b8f 8594
00000080: 7a64 9392 a988 986a 937d 7d7d 918d 8f6a
00000090: 8c8b 8892 6175 83af 938e 9085 807b 7d4d
000000a0: 9d62 4e60 6a9b 9a92 7a8d b86f 6e87 9c78
000000b0: 7cc5 a7a4 7f85 a063 5a6f 7454 7088 94a3
000000c0: ab86 7d8a 8f8d 7f80 7f85 5c78 807b 8193
000000d0: 5da7 68b0 9d8f 905d 509e 6f8c 87bd 8586
000000e0: 8376 8099 5988 9259 8376 8798 659d 888d
000000f0: 7994 6082 ac97 74a4 6c57 8487 7d8a 6257

onnx::MatMul_580_quantized u1 [64, 192]
201 159 104 164 92 79 104 142
177 99 136 135 78 169 191 185
143 172 155 158 84 73 78 163
114 135 160 140 184 119 148 131
123 130 126 123 141 143 98 177
147 74 201 75 121 190 111 145
113 86 123 98 159 67 175 177
134 92 53 105 146 68 58 211
206 135 162 117 118 106 127 155
49 76 89 120 99 66 160 61
176 198 81 140 96 106 101 155
183 50 205 145 170 78 27 133
222 119 161 71 104 136 86 70
162 68 77 108 204 46 155 191
135 202 117 85 120 83 44 103
78 151 63 185 145 43 125 175
118 154 88 89 156 65 136 97
61 159 93 181 67 175 149 186
124 101 159 151 188 35 122 109
46 145 124 67 152 181 45 166
170 140 70 108 75 147 144 182
197 137 164 183 130 198 85 78
141 119 164 177 201 170 104 81
212 83 200 38 82 95 209 173
188 64 154 166 105 50 61 85
170 191 119 158 117 185 102 106
206 156 81 121 107 125 150 184
130 178 42 195 202 90 95 157
79 133 193 57 93 205 63 113
88 51 158 58 126 111 101 85
97 76 105 99 173 73 155 78
97 109 163 203 130 129 164 100
00000000: c99f 68a4 5c4f 688e b163 8887 4ea9 bfb9
00000010: 8fac 9b9e 5449 4ea3 7287 a08c b877 9483
00000020: 7b82 7e7b 8d8f 62b1 934a c94b 79be 6f91
00000030: 7156 7b62 9f43 afb1 865c 3569 9244 3ad3
00000040: ce87 a275 766a 7f9b 314c 5978 6342 a03d
00000050: b0c6 518c 606a 659b b732 cd91 aa4e 1b85
00000060: de77 a147 6888 5646 a244 4d6c cc2e 9bbf
00000070: 87ca 7555 7853 2c67 4e97 3fb9 912b 7daf
00000080: 769a 5859 9c41 8861 3d9f 5db5 43af 95ba
00000090: 7c65 9f97 bc23 7a6d 2e91 7c43 98b5 2da6
000000a0: aa8c 466c 4b93 90b6 c589 a4b7 82c6 554e
000000b0: 8d77 a4b1 c9aa 6851 d453 c826 525f d1ad
000000c0: bc40 9aa6 6932 3d55 aabf 779e 75b9 666a
000000d0: ce9c 5179 6b7d 96b8 82b2 2ac3 ca5a 5f9d
000000e0: 4f85 c139 5dcd 3f71 5833 9e3a 7e6f 6555
000000f0: 614c 6963 ad49 9b4e 616d a3cb 8281 a464

encoder.layers.0.self_attn.out_proj.weight_quantized u1 [64, 64]
65 170 99 67 42 67 104 244
112 201 174 166 181 183 29 69
215 61 223 99 175 194 59 113
66 49 195 177 125 50 66 40
79 225 210 113 163 227 158 168
142 167 100 45 217 24 133 179
81 159 85 164 121 169 155 118
154 72 76 104 161 191 208 80
147 39 186 52 88 211 76 207
166 153 37 93 78 177 111 146
47 222 74 189 62 216 206 190
132 135 164 57 24 88 24 169
26 102 94 203 163 181 66 181
197 145 30 189 65 149 96 79
60 158 72 85 24 189 139 185
109 21 148 40 201 105 201 191
206 235 53 215 216 38 37 235
226 100 38 154 215 25 17 128
49 62 198 57 108 17 150 75
237 120 197 31 163 113 93 121
130 113 15 79 19 130 15 121
32 72 208 165 108 30 214 198
97 224 225 137 154 74 71 54
44 217 229 167 130 90 83 12
186 112 227 232 83 123 62 62
195 35 122 40 63 82 109 58
165 150 117 44 98 104 85 158
83 209 13 107 91 148 40 96
17 96 145 113 207 205 114 104
127 220 243 112 205 90 213 195
96 133 94 111 172 189 135 126
60 139 54 180 185 114 26 76
00000000: 41aa 6343 2a43 68f4 70c9 aea6 b5b7 1d45
00000010: d73d df63 afc2 3b71 4231 c3b1 7d32 4228
00000020: 4fe1 d271 a3e3 9ea8 8ea7 642d d918 85b3
00000030: 519f 55a4 79a9 9b76 9a48 4c68 a1bf d050
00000040: 9327 ba34 58d3 4ccf a699 255d 4eb1 6f92
00000050: 2fde 4abd 3ed8 cebe 8487 a439 1858 18a9
00000060: 1a66 5ecb a3b5 42b5 c591 1ebd 4195 604f
00000070: 3c9e 4855 18bd 8bb9 6d15 9428 c969 c9bf
00000080: ceeb 35d7 d826 25eb e264 269a d719 1180
00000090: 313e c639 6c11 964b ed78 c51f a371 5d79
000000a0: 8271 0f4f 1382 0f79 2048 d0a5 6c1e d6c6
000000b0: 61e0 e189 9a4a 4736 2cd9 e5a7 825a 530c
000000c0: ba70 e3e8 537b 3e3e c323 7a28 3f52 6d3a
000000d0: a596 752c 6268 559e 53d1 0d6b 5b94 2860
000000e0: 1160 9171 cfcd 7268 7fdc f370 cd5a d5c3
000000f0: 6085 5e6f acbd 877e 3c8b 36b4 b972 1a4c
